tools/accuracy_checker/data/test_models/samplenet.onnx (onnx, 249659 bytes, 10 tensors)

conv1_weight f4 [6, 3, 5, 5]
0	0x3c2fcbfe	0.010729788
1	0xbde7fd43	-0.11327603
2	0x3e34d18f	0.17658065
3	0xbe3203dd	-0.17384286
4	0xbdba524c	-0.09097728
5	0x3e0ca2df	0.13734005
6	0xbebdcf83	-0.3707238
7	0xbd381dc6	-0.04495027
8	0x3f39253a	0.7232243
9	0xbea4814f	-0.32129905
10	0x3e7da8ea	0.24771467
11	0x3e6ba6b2	0.23012808
12	0xbf81d11b	-1.0141939
13	0x3d16e6bb	0.036841135
14	0x3ed7cc08	0.4214785
15	0xbdcaba59	-0.09898824
16	0x3ef69d83	0.48167047
17	0x3df76530	0.12079847
18	0xbf2ffbf9	-0.68743855
19	0xbdf4e16a	-0.11957057
20	0x3e132635	0.14370044
21	0x3ceb84b0	0.028749794
22	0x3ef13b34	0.4711548
23	0x3e111db3	0.14171486
24	0xbdeca25a	-0.115544036
25	0xbe456d53	-0.19279985
26	0xbe564732	-0.20925596
27	0x3e803966	0.25043792
28	0x3d7d6425	0.061863083
29	0x3ea348f1	0.31891587
30	0xbc9da241	-0.019242408
31	0xbf2ce49e	-0.6753634
32	0xbeaec393	-0.34133586
33	0x3f3959d8	0.72402716
34	0x3b82b48a	0.003988807
35	0x3edbaa6a	0.42903453
36	0x3e4d446d	0.20045634
37	0xbfa55ee5	-1.2919585
38	0xbe05e851	-0.13076903
39	0x3f0edae9	0.5580278
40	0x3d311d03	0.04324056
41	0x3f11dedf	0.569807
42	0x3dd87cd8	0.10570687
43	0xbf3c44ec	-0.73542666
44	0x3bfff79b	0.0078114993
45	0x3dabca79	0.08388228
46	0xbe32df69	-0.17468037
47	0x3e526d60	0.20549536
48	0xbe30684a	-0.17227283
49	0xbe2f7b98	-0.17136991
50	0x3dd0fcde	0.102044806
51	0x3e1c4a39	0.15262689
52	0x3edde728	0.4334042
53	0xbddafc0b	-0.10692605
54	0xbe93afbf	-0.2884502
55	0xbd91937a	-0.07108207
56	0xbefc8be0	-0.49325466
57	0xbd68254d	-0.056676198
58	0x3f5b9bcb	0.85784596
59	0xbe6eaf81	-0.23309137
60	0x3e5fc53e	0.21852586
61	0x3e900469	0.28128365
62	0xbf8dea59	-1.1087142
63	0x3bf9a250	0.007618226
64	0x3f01369a	0.5047394
65	0xbe50f1f6	-0.20404801
66	0x3f1b47b8	0.6065631
67	0x3e595a09	0.21225752
68	0xbf280a63	-0.6564085
69	0x3c7e1377	0.0155075705
70	0xbe1b22b0	-0.15149951
71	0xbe382216	-0.17981753
72	0x3e9aa250	0.3020196
73	0xbd309d73	-0.043118905
74	0x3e1abf8e	0.15112135
75	0xbe4035ec	-0.1877057
76	0x3e4faf00	0.20281601
77	0x3cb18180	0.021668196
78	0xbc10d321	-0.0088394
79	0xbe3a6354	-0.18201953
80	0xbe3f995d	-0.18710847
81	0x3f1a2143	0.60207003
82	0xbed79ad1	-0.42110303
83	0x3ed7cc2c	0.42147958
84	0xbda26e49	-0.079311915
85	0xbecee4b5	-0.40408865
86	0x3f5ce10c	0.86280894
87	0xbf547798	-0.82994986
88	0x3f18836e	0.59575546
89	0xbe922a9d	-0.28548136
90	0xbeb8d7a3	-0.36102018
91	0x3f3be55d	0.73396856
92	0xbf24397e	-0.64150226
93	0x3efe2ca7	0.49643442
94	0xbe59d676	-0.21273217
95	0xbe6b99ff	-0.23007964
96	0x3ed14d57	0.40879318
97	0xbe971f8c	-0.29516256
98	0x3e824048	0.25439668
99	0xbe17e612	-0.14833859
100	0x3e5112cf	0.20417331
101	0xbd440284	-0.04785396
102	0xbf070e30	-0.52756023
103	0xbe2da760	-0.1695838
104	0x3e3ffd9e	0.18749091
105	0x3e98f38d	0.29873314
106	0x3ee1c501	0.44095615
107	0xbf786955	-0.97035724
108	0x3e8fe57c	0.2810477
109	0x3e91eff3	0.2850338
110	0x3e24045d	0.1601729
111	0x3f3c36a0	0.7352085
112	0xbfa4f287	-1.2886513
113	0x3efcedb7	0.49400112
114	0x3e037391	0.12837054
115	0x3dbe4870	0.0929116
116	0x3f0dd9b7	0.5541033
117	0xbf84510b	-1.0337232
118	0x3ea7e0b7	0.3278863
119	0x3dae08db	0.08497783
120	0x3e07be8b	0.1325628
121	0x3e411462	0.18855432
122	0xbf2dc3fc	-0.67877173
123	0x3b4da872	0.0031380919
124	0x3c0e1c07	0.008673674
125	0xbd9e216d	-0.07721219
126	0xbc39a6fd	-0.011331317
127	0x3e21e42c	0.15809697
128	0x3e801c64	0.2502166
129	0xbdd1ea93	-0.102498196
130	0xbe8a85dd	-0.27055255
131	0x3e88558e	0.26627773
132	0xbee07738	-0.43840957
133	0x3f0663af	0.52495855
134	0xbe9abc9a	-0.30222017
135	0xbed26eda	-0.41100198
136	0x3f13cd75	0.5773538
137	0xbf5fc4fb	-0.87409943
138	0x3f466f51	0.77513605
139	0xbebccb35	-0.36873785
140	0xbe6e1e58	-0.23253763
141	0x3ef978e3	0.48725042
142	0xbf35c3f3	-0.7100212
143	0x3f1b99d7	0.60781616
144	0xbe299b2f	-0.16563104
145	0xbd4441f6	-0.047914468
146	0x3e812381	0.252224
147	0xbe87395c	-0.2641095
148	0x3ebb6f11	0.36608174
149	0x3bd7c91b	0.006585253
150	0xbe418df5	-0.18901809
151	0xbd2d47a7	-0.04230466
152	0xbddb24cc	-0.10700378
153	0x3e580eb8	0.21099365
154	0xbcbfc39e	-0.023408707
155	0xbdd61722	-0.10453631
156	0xbeda6af8	-0.42659736
157	0x3f38e0a6	0.72217786
158	0x3e2b9bb6	0.16758618
159	0xbe4b0246	-0.19825086
160	0xbde54eda	-0.1119668
161	0x3f25bfc2	0.64745724
162	0x3ef5002c	0.47851694
163	0xbf7cdb36	-0.9877199
164	0x3dd1d687	0.10245996
165	0x3e165daa	0.14684168
166	0x3e782d1c	0.24235958
167	0xbf80e62c	-1.0070243
168	0xbd23336d	-0.039843965
169	0x3ebd082b	0.36920294
170	0x3d104c59	0.03522906
171	0xbdd8d9ee	-0.10588442
172	0x3bc99d3d	0.0061527775
173	0x3eeb5e35	0.45970312
174	0x3c19e918	0.009393953
175	0x3e7a00f1	0.24414422
176	0x3e77d26b	0.24201362
177	0xbd10eeb1	-0.035383884
178	0x3e4efc0f	0.2021334
179	0xbe3ab335	-0.18232425
180	0x3ea8576c	0.32879198
181	0xbea89247	-0.329241
182	0x3f1196bb	0.5687062
183	0xbc76dcfc	-0.015067335
184	0xbed9b5c2	-0.42521483
185	0x3da5562b	0.08073076
186	0x3effacca	0.49936515
187	0x3e18dea8	0.14928687
188	0xbf98e09a	-1.1943543
189	0x3dc96f03	0.09835627
190	0x3e25f676	0.16207299
191	0x3de1b947	0.11021667
192	0xbf8c439d	-1.0958134
193	0x3dfcefa4	0.12350395
194	0x3f12c6d7	0.57334656
195	0xbe6cb6c2	-0.23116592
196	0xbec0c503	-0.37650308
197	0xbdf28540	-0.11841822
198	0x3ef8b814	0.4857794
199	0xbe2ac478	-0.1667651
200	0xbeab9343	-0.3351079
201	0xbdc4ca06	-0.096088454
202	0xbe636bc4	-0.22209078
203	0x3e55cbcb	0.20878522
204	0x3e1281e5	0.14307363
205	0xbddd1d7c	-0.10796639
206	0xbeb9b732	-0.3627258
207	0x3f3cd361	0.7376004
208	0x3e5019e6	0.2032238
209	0xbe7f16f8	-0.24911106
210	0xbe207f6b	-0.15673606
211	0x3f24da13	0.64395255
212	0x3ec8632d	0.39138165
213	0xbf857b1f	-1.0428199
214	0x3df719ce	0.12065469
215	0x3d9d4640	0.07679415
216	0x3e5487ba	0.207549
217	0xbf790247	-0.972691
218	0x3e15a641	0.14614202
219	0x3ef6fbdc	0.48239028
220	0x3e56f800	0.20993042
221	0xbd9f3e9f	-0.07775616
222	0xbb1be931	-0.0023790116
223	0x3eef4610	0.4673314
224	0xbe9f43e3	-0.3110648
225	0x3e04edf0	0.12981391
226	0x3ddac151	0.106814034
227	0xbc15f469	-0.00915251
228	0xbcec6394	-0.028856076
229	0xbd0cab58	-0.034343094
230	0x3ec5fa10	0.38667345
231	0x3e47f6ab	0.1952769
232	0x3d881c26	0.06645994
233	0x3dab0ead	0.083524086
234	0x3dbd38dc	0.09239361
235	0x3ea14f6a	0.315059
236	0x3e6571a5	0.22406633
237	0xbd38c03c	-0.045105204
238	0xbd27d4d1	-0.040974442
239	0xbd3a6186	-0.04550316
240	0x3e2c6e44	0.16838938
241	0x3dd298e6	0.10283069
242	0xbdc6f495	-0.09714619
243	0xbe079e29	-0.13243927
244	0xbd1c725a	-0.03819499
245	0x3e1dad71	0.15398194
246	0x3e0e8c13	0.13920622
247	0xbbfd6b25	-0.00773372
248	0xbd7f41d7	-0.06231865
249	0xbda6fad9	-0.08153314
250	0x3d8a22fd	0.06744955
251	0x3b340112	0.0027466458
252	0xbd16e1e3	-0.036836516
253	0x3d0b58bd	0.034020174
254	0xbcb0bc5b	-0.02157419
255	0x3e882623	0.26591596

conv1_bias f4 [6]
0	0xbe8b1667	-0.2716553
1	0xbe27c45d	-0.163835
2	0xbe53696e	-0.20645687
3	0x3f6be652	0.92148316
4	0xbf08ff2f	-0.5351438
5	0xbf08ef88	-0.53490496

conv2_weight f4 [16, 6, 5, 5]
0	0xb3737387	-5.6682918e-08
1	0xb38d7700	-6.58747e-08
2	0xb3614738	-5.2451668e-08
3	0xb3839382	-6.1269944e-08
4	0xb389afdb	-6.4115476e-08
5	0xb342bbcb	-4.533994e-08
6	0xb34424b9	-4.5668205e-08
7	0xb34a025b	-4.7033932e-08
8	0xb36fe793	-5.585714e-08
9	0xb387d88d	-6.325818e-08
10	0xb3b4391f	-8.3922934e-08
11	0xb38ec841	-6.648816e-08
12	0xb39123d5	-6.7586065e-08
13	0xb3a7f62c	-7.821322e-08
14	0xb38ba238	-6.502199e-08
15	0xb39824ff	-7.084781e-08
16	0xb3cae0b9	-9.447235e-08
17	0xb3b1d903	-8.281679e-08
18	0xb3b51ebd	-8.4340606e-08
19	0xb3b787d0	-8.546306e-08
20	0xb3e87c4e	-1.0825953e-07
21	0xb3a9b1c9	-7.902015e-08
22	0xb3dfa2f8	-1.04138905e-07
23	0xb3cb20f0	-9.4589154e-08
24	0xb3c28442	-9.0578865e-08
25	0xb2fdfff9	-2.956948e-08
26	0xb37ca1cd	-5.882048e-08
27	0xb33ef060	-4.4456442e-08
28	0xb368ac6f	-5.4173537e-08
29	0xb37352ce	-5.6653157e-08
30	0xb31bed04	-3.6304314e-08
31	0xb3592b01	-5.056336e-08
32	0xb2f5857d	-2.8582457e-08
33	0xb2bbd95d	-2.186851e-08
34	0xb34342c4	-4.54627e-08
35	0xb2c0e192	-2.245432e-08
36	0xb2813c25	-1.5044927e-08
37	0xb217dc5c	-8.839461e-09
38	0x308d1fbd	1.0268121e-09
39	0xb1911179	-4.222042e-09
40	0xb30ae72d	-3.2340882e-08
41	0xb2e91716	-2.7135268e-08
42	0xb3334313	-4.173769e-08
43	0xb355d68b	-4.9788053e-08
44	0xb31b7423	-3.6194375e-08
45	0xb353e1e6	-4.933272e-08
46	0xb3407402	-4.4808992e-08
47	0xb33bfdb4	-4.3770072e-08
48	0xb2b0badf	-2.0574076e-08
49	0xb30f5c28	-3.3378598e-08
50	0xb2e760f5	-2.693603e-08
51	0xb32b914a	-3.994618e-08
52	0xb3399b53	-4.3214936e-08
53	0xb32fa5be	-4.0896104e-08
54	0xb3834220	-6.112191e-08
55	0xb31ee6af	-3.6997047e-08
56	0xb30a55e5	-3.220875e-08
57	0xb326e12e	-3.8854687e-08
58	0xb322a4ec	-3.786856e-08
59	0xb3367b56	-4.248735e-08
60	0xb3796bea	-5.8072978e-08
61	0xb32cd077	-4.023647e-08
62	0xb3430d34	-4.5413984e-08
63	0xb37bf763	-5.866549e-08
64	0xb36ae9eb	-5.4695118e-08
65	0xb37aae2e	-5.8366076e-08
66	0xb341b61d	-4.5101945e-08
67	0xb32936f6	-3.9398365e-08
68	0xb365ad76	-5.347598e-08
69	0xb33eaab0	-4.439306e-08
70	0xb37e573e	-5.921833e-08
71	0xb3891c84	-6.3847466e-08
72	0xb38a0200	-6.4264896e-08
73	0xb34c585d	-4.7577817e-08
74	0xb391487e	-6.765275e-08
75	0xb2a0bc3a	-1.8712047e-08
76	0xb2972408	-1.7595099e-08
77	0xb3094424	-3.195977e-08
78	0xb3005e0c	-2.9887858e-08
79	0xb3048461	-3.0854043e-08
80	0xb27402fc	-1.4203348e-08
81	0xb32d9ddc	-4.0423274e-08
82	0xb30199b0	-3.017493e-08
83	0xb310022f	-3.35296e-08
84	0xb3036abd	-3.0597892e-08
85	0xb268ee39	-1.3558343e-08
86	0x315ba20b	3.1960805e-09
87	0xb1896a16	-3.9992853e-09
88	0x320ea257	8.3024e-09
89	0x313dbece	2.761158e-09
90	0xb27e9424	-1.4818429e-08
91	0xb2ea0bc1	-2.724653e-08
92	0xb2e44ffd	-2.6579068e-08
93	0xb2f69782	-2.8707067e-08
94	0xb3096c81	-3.1996482e-08
95	0xb1c90748	-5.8506977e-09
96	0xb2dbbd78	-2.5581116e-08
97	0xb263e213	-1.3264542e-08
98	0xb2902e5c	-1.6784888e-08
99	0xb302e31c	-3.047454e-08
100	0xb32e6122	-4.0600874e-08
101	0xb2e713b9	-2.6900908e-08
102	0xb2cfbb45	-2.4183132e-08
103	0xb31e14dc	-3.6806213e-08
104	0xb28bf473	-1.6292892e-08
105	0xb2b71683	-2.1314241e-08
106	0xb29bdbfa	-1.8144409e-08
107	0xb1b02b8c	-5.127225e-09
108	0xb3123736	-3.4043488e-08
109	0xb2a6995f	-1.9394689e-08
110	0xb2a3533e	-1.9013552e-08
111	0xb2b3a7bd	-2.0914621e-08
112	0xb32d66b2	-4.0373102e-08
113	0xb32e8a3f	-4.0638266e-08
114	0xb3444b30	-4.570319e-08
115	0xb33126bf	-4.1246263e-08
116	0xb3361a38	-4.2399023e-08
117	0xb2fce6e2	-2.9441654e-08
118	0xb316ea0f	-3.513747e-08
119	0xb2d3dc8c	-2.4663926e-08
120	0xb310334d	-3.357427e-08
121	0xb325d96a	-3.8614793e-08
122	0xb2dc0581	-2.5613874e-08
123	0xb32036ac	-3.7302627e-08
124	0xb30ab131	-3.2291783e-08
125	0xb365490c	-5.3384653e-08
126	0xb312a07b	-3.413923e-08
127	0xb2e52420	-2.6675536e-08
128	0xb35cf259	-5.1443156e-08
129	0xb2c1f212	-2.2578238e-08
130	0xb2f335b8	-2.8313352e-08
131	0xb2afa3b9	-2.0447134e-08
132	0xb335e675	-4.2351946e-08
133	0xb2cbdc7a	-2.3732571e-08
134	0xb225c118	-9.6481685e-09
135	0xb27388e2	-1.4175585e-08
136	0xb3178d51	-3.5285954e-08
137	0xb2db4433	-2.5525969e-08
138	0xb2926b7a	-1.7045512e-08
139	0xb30b7455	-3.2469263e-08
140	0xb307f0de	-3.1651204e-08
141	0xb2de4b19	-2.5878352e-08
142	0xb2c1d8da	-2.256677e-08
143	0xb2f6ebaa	-2.8745337e-08
144	0xb28ab5e6	-1.6148032e-08
145	0xb1512003	-3.04317e-09
146	0xb246a3d4	-1.1562367e-08
147	0xab820e84	-9.241084e-13
148	0xb1e54e8b	-6.6737065e-09
149	0xb2451efb	-1.1473953e-08
150	0x3d279fef	0.04092401
151	0xbcc6f320	-0.024285853
152	0xbd7fec8a	-0.06248144
153	0xbc75d244	-0.0150037445
154	0x3c8f102b	0.017463764
155	0xbce67c64	-0.028135486
156	0xbc70eac8	-0.014704414
157	0x3e364242	0.17798713
158	0x3c852825	0.016254494
159	0xbc7a8362	-0.015290113
160	0x3dd12c51	0.10213531
161	0x3e82c9f3	0.255447
162	0xbcb22772	-0.021747325
163	0x3d9ea9da	0.0774724
164	0x3c85ae33	0.016318416
165	0x3e51fcd9	0.2050661
166	0x3bae3d53	0.005317369
167	0x3dca8686	0.098889396
168	0x3da7cae6	0.08192997
169	0xbd3b0c71	-0.045666162
170	0x3d390f0d	0.04518037
171	0x3d535a75	0.05159994
172	0x3d88810e	0.0666524
173	0xbb781890	-0.0037856437
174	0x3d0a231a	0.03372488
175	0xbcc1594c	-0.02360215
176	0x3dd1ab16	0.1023771
177	0x3da8847a	0.08228393
178	0x3cf6ab71	0.030111047
179	0xbd17eb6a	-0.037089743
180	0x3d229b0c	0.039698645
181	0x3cb3b1d5	0.021935383
182	0x3d711e7a	0.058866955
183	0x3d1eb0a8	0.03874269
184	0x3da7bc0b	0.08190163
185	0x3deadfc9	0.11468465
186	0x3cc8e3b9	0.02452265
187	0x3c424654	0.011857588
188	0x3b9b3785	0.004736843
189	0x3d84285d	0.06453011
190	0xbd87a032	-0.06622352
191	0x3cca32ea	0.02468248
192	0x3d69546c	0.056965277
193	0xb9cfaa65	-0.0003960907
194	0x3bc90907	0.0061351093
195	0x3cee0d59	0.029059099
196	0x3e00c406	0.12574777
197	0x3e107b3e	0.14109513
198	0x3e306a48	0.17228043
199	0x3a5ed5cb	0.00085004856
200	0x3d7c33de	0.061572902
201	0xbd84ca89	-0.06483943
202	0x39ead217	0.00044788487
203	0x3e37c165	0.17944868
204	0x3cc6b2fb	0.024255266
205	0x3dc71979	0.097216554
206	0x3e3d2ebe	0.18474862
207	0xbca16335	-0.019700626
208	0x3d00a46c	0.031406805
209	0x3e21c3d6	0.15797362
210	0x3d0b84e4	0.03406228
211	0x3dc1d99f	0.09465336
212	0x3e81af32	0.25328976
213	0x3dcd7d28	0.10033637
214	0x3d20260e	0.03909879
215	0x3e2baa7c	0.16764253
216	0x3d80203b	0.062561475
217	0x3d4d3b36	0.050105296
218	0x3e5f5205	0.21808632
219	0x3e184f7b	0.1487407
220	0x3e2c0bcf	0.1680138
221	0x3e07edea	0.13274351
222	0x3dd2dfc1	0.10296584
223	0x3da1abc6	0.07894091
224	0x3dfce500	0.12348366
225	0x3dc37cb1	0.095452674
226	0xbb036c91	-0.0020053724
227	0x3c11d587	0.008901007
228	0xbcfae150	-0.030625015
229	0xbe2c35eb	-0.16817443
230	0x3c92858f	0.017885951
231	0x3cadca3c	0.021214597
232	0x3bf23cbe	0.007392495
233	0xbdbc4f71	-0.0919484
234	0xbd805d97	-0.06267851
235	0x3d549bfc	0.05190657
236	0xbdd14962	-0.10219075
237	0xbdd34a0f	-0.1031686
238	0xbd6484dd	-0.05579077
239	0xbb261876	-0.002534417
240	0xbda53e03	-0.080684684
241	0xbd778a40	-0.06043458
242	0xbd4a7db5	-0.04943629
243	0xbe00b9f1	-0.12570931
244	0xbdcbe1c3	-0.0995517
245	0xbe049c7d	-0.1295032
246	0xbe0c7642	-0.13716987
247	0xbdbda10d	-0.092592336
248	0xbd53605e	-0.051605575
249	0x3d945cf2	0.072442904
250	0x3cdb6b1b	0.02678447
251	0xbcabc3f9	-0.02096747
252	0x3d81a4d9	0.0633027
253	0x3cd34ab7	0.025792463
254	0x3c16e2b9	0.009209328
255	0x3a927d63	0.0011176284

conv2_bias f4 [16]
0	0xb34d9a2f	-4.787051e-08
1	0x4023e3fc	2.56079
2	0xbfa30638	-1.2736273
3	0x3f245b11	0.64201456
4	0xbebb1084	-0.36536038
5	0xb744bc1d	-1.1726309e-05
6	0x3ea5c9cb	0.32380518
7	0xbda77439	-0.081764646
8	0x3e52aad3	0.20572977
9	0xbe37811e	-0.17920348
10	0x3df1954d	0.11796055
11	0x3d89377e	0.067000374
12	0x401b887b	2.430205
13	0xb2b9ba93	-2.1621679e-08
14	0x3ecb3ac1	0.39693263
15	0xb8ab7fde	-8.1777325e-05

fc1_weight f4 [120, 400]
0	0xb18cf4fc	-4.1023878e-09
1	0x31a27d59	4.729071e-09
2	0x31712e9d	3.5096612e-09
3	0x31cbc875	5.930867e-09
4	0xb1c8e7ae	-5.847105e-09
5	0xb17eb787	-3.7066188e-09
6	0xb24835b7	-1.16537455e-08
7	0x31bab7e5	5.434219e-09
8	0xb1f1d59a	-7.038307e-09
9	0x31a3efd4	4.7711897e-09
10	0xb20ef25b	-8.320593e-09
11	0x2fdae1dd	3.9814455e-10
12	0xb13efb69	-2.779155e-09
13	0x313b5bb9	2.726422e-09
14	0xb1fd7763	-7.376842e-09
15	0x31b206ba	5.1812465e-09
16	0x30a61f0b	1.2086913e-09
17	0x30f80736	1.8046424e-09
18	0xb217afdb	-8.829342e-09
19	0xb28bc721	-1.6272283e-08
20	0xb0b42c5a	-1.3109329e-09
21	0xb16a52de	-3.4098586e-09
22	0xb28ceb4f	-1.6405151e-08
23	0xb1be256f	-5.5339835e-09
24	0xb2606279	-1.3060906e-08
25	0xbd8531bd	-0.065036274
26	0xbdd825d6	-0.10554092
27	0xbdd8365d	-0.10557244
28	0xbdb67769	-0.089094944
29	0xbde078ba	-0.10960527
30	0x3ca6feff	0.020385263
31	0xbd071410	-0.032978117
32	0xbcacda4f	-0.021100191
33	0xbd030edf	-0.031996604
34	0x3c06b4e6	0.0082218405
35	0x3d008554	0.03137715
36	0xbc03c245	-0.008041923
37	0xbc804971	-0.01566002
38	0xbc2de1e9	-0.010612943
39	0x3c4cfdc5	0.012511675
40	0x3d426fee	0.047470026
41	0xbc39a631	-0.011331127
42	0xbda32393	-0.079657696
43	0xbd21693b	-0.039406996
44	0x3c748fae	0.014926834
45	0x3e1329b2	0.14371374
46	0x3d1ad69f	0.037802335
47	0xbc0fbddd	-0.008773294
48	0x3c1629ba	0.009165222
49	0x3de76560	0.112986326
50	0xbbc22c8d	-0.005925721
51	0x3bcbb841	0.006217033
52	0x3d02c272	0.03192372
53	0xbcb3345c	-0.021875553
54	0xbd2d8747	-0.04236534
55	0xbd584240	-0.052797556
56	0x3b21ec92	0.0024707657
57	0x3d25f1aa	0.040513672
58	0x3c4b92b9	0.012425118
59	0xbcaa8736	-0.020816427
60	0x3c0b8f16	0.008518001
61	0x3c217f68	0.009857036
62	0x3da33c9b	0.07970544
63	0xbd010527	-0.031499054
64	0xbcd25e1f	-0.025679646
65	0x3da56079	0.08075041
66	0x3de89de6	0.11358242
67	0x3e1d6a9d	0.15372701
68	0x3dbc59d3	0.0919682
69	0x3cd4f05d	0.02599352
70	0xbddbbfdd	-0.107299544
71	0x3df8ac47	0.12142234
72	0x3e570253	0.2099698
73	0x3c877524	0.01653535
74	0xbdf52133	-0.11969223
75	0xbe1c5ca0	-0.15269709
76	0xbda1158d	-0.078654386
77	0x3c89f14b	0.01683869
78	0xbda54630	-0.08070028
79	0xbdffd118	-0.12491053
80	0xbe108ed7	-0.14116989
81	0xbddab0f5	-0.10678283
82	0xbc80e696	-0.015734952
83	0xbd081073	-0.033218812
84	0xbd5581a4	-0.052125588
85	0xbd7868b4	-0.060646728
86	0xbd8d582d	-0.06901584
87	0xbcfb42a5	-0.030671427
88	0xbd85b4ac	-0.06528601
89	0xbd98549c	-0.07438013
90	0xbcbb53e9	-0.02286716
91	0xbc964d6b	-0.018347463
92	0xbd1d24e3	-0.038365256
93	0xbda027b1	-0.078200705
94	0xbd981bce	-0.07427178
95	0x3ca07b69	0.019590097
96	0x3d40fbf8	0.047115296
97	0x3cdd67d3	0.027027046
98	0xbd53c44f	-0.051700886
99	0xbd2e9a90	-0.04262787
100	0xbc215e7c	-0.009849187
101	0xbda47ad3	-0.08031239
102	0xbdf22431	-0.11823309
103	0xbcc1da7b	-0.02366375
104	0x3d3746bd	0.044745196
105	0x3bbc859e	0.005753233
106	0xbcc423f2	-0.023942921
107	0xbd4eb022	-0.050460942
108	0xbd66584d	-0.056236554
109	0xbc609d85	-0.013709431
110	0xbb1d8895	-0.0024037708
111	0xbcaff6c2	-0.021479968
112	0xbc44a4d3	-0.012002188
113	0xbc95c5a1	-0.018282713
114	0xbc41392a	-0.011793414
115	0x3d1d32af	0.038378414
116	0xbcfafaba	-0.030637134
117	0xbcacd984	-0.021099813
118	0x3bb736c0	0.0055912435
119	0x3cf2e4d3	0.029650128
120	0x3c8bdf0c	0.01707413
121	0x3c0325b9	0.008004599
122	0xbc92c8e9	-0.017918067
123	0xbd18296d	-0.03714888
124	0x3c3f3308	0.011669882
125	0xb63d1247	-2.8173833e-06
126	0xb5c837da	-1.4917416e-06
127	0xb58f836e	-1.0692581e-06
128	0xb5dd3159	-1.6480145e-06
129	0xb5e9206a	-1.7369287e-06
130	0xb5c08bd4	-1.434581e-06
131	0xb5e51847	-1.7068895e-06
132	0xb51b4b30	-5.785141e-07
133	0xb5e85ec4	-1.7312927e-06
134	0xb603e077	-1.9651177e-06
135	0xb5fe18d5	-1.8931702e-06
136	0xb5dcb679	-1.6444384e-06
137	0xb4249ad9	-1.5330023e-07
138	0xb4f35ac3	-4.5328315e-07
139	0xb4b7fda8	-3.4270965e-07
140	0xb61379bc	-2.1975566e-06
141	0xb5a000ef	-1.1921201e-06
142	0xb53d881a	-7.060604e-07
143	0xb54aab56	-7.550019e-07
144	0xb541304a	-7.196837e-07
145	0xb61a1603	-2.29606e-06
146	0xb5e7ec5b	-1.727963e-06
147	0xb503ce57	-4.9101567e-07
148	0xb5c4f359	-1.4673961e-06
149	0xb5b0107b	-1.3117818e-06
150	0xbbdc5324	-0.0067237783
151	0x3c770254	0.015076239
152	0x3d3bc0ca	0.045838155
153	0x3ab6f4fa	0.0013958507
154	0x3c30cd03	0.010791066
155	0xbd3cdebc	-0.046110854
156	0x3c532fcd	0.012889815
157	0x3ddb1099	0.10696525
158	0x3b717f17	0.0036849433
159	0xbb02c964	-0.0019956464
160	0x3ca69aed	0.020337546
161	0x3cd522eb	0.026017627
162	0x3dec25d6	0.11530654
163	0x3d272358	0.04080519
164	0x3d1ff221	0.03904927
165	0x3daccea4	0.08437851
166	0xbbde25f7	-0.006779428
167	0x3da5f9e7	0.08104306
168	0x3bc100be	0.005889981
169	0x3e04cb61	0.12968208
170	0x3e36cd5f	0.1785178
171	0xbccf0e8b	-0.02527549
172	0xbc792d0b	-0.015208493
173	0x3c6cf3d8	0.014462434
174	0x3e198d6d	0.14995356
175	0xbd904f7a	-0.07046409
176	0xbced2521	-0.028948369
177	0xbc64a95c	-0.013956394
178	0xbd10f204	-0.035387054
179	0xbdc61b8c	-0.09673223
180	0xbd35e6fd	-0.04440974
181	0xbca8737a	-0.020562876
182	0xbc64fdc3	-0.013976517
183	0xbd1a542b	-0.037677925
184	0xbded7727	-0.11594992
185	0xbd1c1e6b	-0.038114946
186	0xbb888067	-0.0041656974
187	0x3bae70c5	0.005323502
188	0xbd498d6d	-0.04920714
189	0xbdb7b55a	-0.08970137
190	0xbd12c8cf	-0.035836037
191	0xbd1d2bf2	-0.038371988
192	0xbc897a60	-0.016781986
193	0xbcc991bf	-0.02460563
194	0xbd9e20c7	-0.077210955
195	0xbcc37381	-0.023858787
196	0xbd7cc217	-0.061708536
197	0xbd434470	-0.04767269
198	0xbc793515	-0.01521041
199	0xbd10f39e	-0.03538858
200	0x3dac1b01	0.08403588
201	0x3d743f9c	0.059630975
202	0x3d9177b5	0.071029104
203	0x3d20883e	0.03919243
204	0x3d435a26	0.047693394
205	0xbd8c71df	-0.06857657
206	0xbda4844e	-0.080330476
207	0xbd8ffea9	-0.070309944
208	0xbd2cb9c0	-0.042169333
209	0xbcba77c8	-0.022762194
210	0xbd22da7e	-0.03975915
211	0xbd2af73a	-0.04173968
212	0xbd7ea2a7	-0.062166836
213	0xbd3860e5	-0.04501428
214	0x3c2346ce	0.009965612
215	0xbd980cfc	-0.074243516
216	0xbd4fca3b	-0.05072997
217	0xbd545a5c	-0.051843986
218	0xbd3a7362	-0.045520194
219	0x3cf9bedd	0.030486519
220	0xbcc4a79e	-0.024005707
221	0x3bee3a4d	0.0072701336
222	0xbd1c1d42	-0.03811384
223	0xbd687f07	-0.056761768
224	0xbd75d465	-0.06001701
225	0x3da7be60	0.08190608
226	0x3d83a370	0.064276576
227	0x3d7d9bd1	0.061916176
228	0x3df36af2	0.118856326
229	0x3df9f75a	0.12205382
230	0x3da45772	0.08024491
231	0x3d84312c	0.06454691
232	0x3d8311be	0.063998684
233	0x3dd4a64a	0.103832796
234	0x3d516209	0.051118884
235	0xbc8262a1	-0.01591617
236	0xbccfc581	-0.025362732
237	0xbd5edd11	-0.054410044
238	0xbd426670	-0.047460973
239	0x3ce6e8f0	0.028187245
240	0xbd68e150	-0.0568555
241	0xbd701d23	-0.058621537
242	0xbdb3578e	-0.08756934
243	0xbd090c28	-0.03345886
244	0xbd901690	-0.070355535
245	0xbc99e6d4	-0.018786825
246	0x3d57ebe8	0.052715212
247	0x3d6e7b2f	0.058222946
248	0x3c395677	0.011312119
249	0xbdd9aae1	-0.10628296
250	0x3cfddcce	0.030989077
251	0x3d7556bb	0.059897166
252	0x3de3857a	0.11109443
253	0x3d2c3e6e	0.042051725
254	0x3d680f57	0.056655254
255	0x3a9ee78b	0.0012123449

fc1_bias f4 [120]
0	0x3e44aa22	0.19205526
1	0xbd78e1e9	-0.06076232
2	0x3d027968	0.031854063
3	0x3d210170	0.03930801
4	0x3d8392b5	0.064244665
5	0xbe07f927	-0.13278638
6	0x3b7db82d	0.0038714514
7	0xbdbda431	-0.09259833
8	0xbd030f1b	-0.031996828
9	0xbdadd94d	-0.084887125
10	0x3d2aceb4	0.041701034
11	0x3d0e6865	0.034767527
12	0xbb92a19d	-0.004474832
13	0xbe154818	-0.14578283
14	0xbc9a55e7	-0.01883979
15	0xbdc89bea	-0.09795363
16	0x3d210bd5	0.039317925
17	0x3c1e73ac	0.009671133
18	0xbc7701b7	-0.015076092
19	0xbe831a03	-0.25605783
20	0xbbd74bd6	-0.0065703196
21	0xbc9f1d4b	-0.019423148
22	0x3dda12e2	0.10648133
23	0xbdf00e67	-0.11721497
24	0xbd949cc7	-0.072564654
25	0x39cd63bd	0.00039174958
26	0x3e05ed93	0.13078909
27	0x3c878523	0.016542977
28	0xbded78c1	-0.115952976
29	0xbc739b15	-0.014868517
30	0x3db0e421	0.08637262
31	0x3dbd122e	0.09231983
32	0xbdac055c	-0.0839946
33	0xbdc2d140	-0.095125675
34	0x3cb43438	0.021997556
35	0xbdeb30a7	-0.11483889
36	0x3dfce85b	0.12349006
37	0xbd004d00	-0.031323433
38	0xbbba3219	-0.0056822416
39	0x3c226fb8	0.009914331
40	0x3de092ec	0.10965523
41	0x3c37e399	0.011223697
42	0xbd7759d9	-0.06038842
43	0x3e16116b	0.14655082
44	0xbc800b74	-0.015630461
45	0x3e699d52	0.22813919
46	0x3e1de33b	0.15418713
47	0x3b94986c	0.0045347717
48	0x3d0b2383	0.033969413
49	0x3b3fa633	0.002924335
50	0xbda65f8b	-0.08123692
51	0x3d6e7b97	0.058223333
52	0x3bb2d191	0.005457111
53	0xbdb54f5d	-0.08853028
54	0x3e94b398	0.2904327
55	0x3c976710	0.018481761
56	0x3df33e14	0.11877075
57	0x3e20257f	0.15639304
58	0xbcad54da	-0.021158624
59	0x3dba5f0e	0.091001615
60	0x3d8ba5e8	0.068187535
61	0xbe374914	-0.17898971
62	0x3dc0dc52	0.09417023
63	0x3dcb1d47	0.099176936
64	0xbce1001a	-0.027465869
65	0x3cf15932	0.029461477
66	0xbd96cc40	-0.07363176
67	0x3caa1024	0.02075965
68	0x3d11ddaf	0.035611805
69	0x3dfc72d4	0.12326589
70	0x3b475fb3	0.0030422031
71	0x3cafed56	0.021475475
72	0xbe11cbd8	-0.14237916
73	0x3e0fce2d	0.14043494
74	0xbcd14cb0	-0.025549263
75	0x3d311dd7	0.043241348
76	0x3e247d0c	0.16063327
77	0xbb01f56f	-0.0019830128
78	0xbcf0f4e9	-0.029413657
79	0xbc881e37	-0.01661597
80	0xbd5b6dd7	-0.05357155
81	0xbdd1574d	-0.102217294
82	0x3c4ed1d9	0.012623274
83	0xbe2e358a	-0.17012611
84	0x3dfe4ff1	0.12417591
85	0xbc7fc990	-0.015612021
86	0x3db40b65	0.08791236
87	0xbcaf8d62	-0.021429721
88	0x3dd0ea76	0.1020097
89	0xbd003194	-0.03129728
90	0x3bb96f73	0.0056590377
91	0x3d93905b	0.07205268
92	0x3dd7506d	0.10513387
93	0xbc31165d	-0.0108085545
94	0x3dae8689	0.08521754
95	0x3d09d74c	0.03365259
96	0xbc700b4f	-0.014651134
97	0xbc3eee43	-0.011653486
98	0xbe5e1931	-0.21689297
99	0x3d0c690a	0.03427986
100	0xbe1a5076	-0.15069756
101	0xbd305df2	-0.043058343
102	0x3d0feb36	0.035136424
103	0x3c72395e	0.014784185
104	0xbd170af8	-0.036875695
105	0x3d3cfedf	0.0461415
106	0xbbd2a348	-0.006428156
107	0xb9214c93	-0.00015382683
108	0x3cdb0c96	0.0267394
109	0xbd7e5100	-0.062088966
110	0x3e1590a6	0.1460596
111	0x3cbc6e9b	0.02300196
112	0xbdbf3e6e	-0.093380794
113	0x3dd135a2	0.10215308
114	0xbd882677	-0.066479616
115	0xbda90b10	-0.08254063
116	0x3db89181	0.09012128
117	0xbe80f146	-0.25184077
118	0xbb9669c5	-0.0045902454
119	0x3e2f5548	0.17122376

fc2_weight f4 [84, 120]
0	0xbd6db83b	-0.058037024
1	0xbe089f35	-0.13341983
2	0x3c983c87	0.01858355
3	0xbd9a628d	-0.07538328
4	0x3df02690	0.11726105
5	0xbcb934c9	-0.022608178
6	0xbc81ee32	-0.01586065
7	0x3d0f7acf	0.03502923
8	0x3d998b56	0.07497279
9	0x3bb6629a	0.0055659534
10	0x3e0ecffd	0.13946529
11	0x3dd494bd	0.10379932
12	0x3df95297	0.12173956
13	0x3cb69311	0.022286924
14	0x3cb99a27	0.022656513
15	0xbd64d089	-0.055862937
16	0xbceace5a	-0.02866285
17	0x3dd30af2	0.10304822
18	0x3c177583	0.009244326
19	0xbdf5e5be	-0.120067105
20	0xbde58cb3	-0.11208477
21	0xbd51159f	-0.05104601
22	0xbdec2bb7	-0.115317754
23	0x3c8ae723	0.016955918
24	0x3c497a90	0.012297288
25	0xbbee6360	-0.00727503
26	0x3d6a0d83	0.057141792
27	0xbd73daa1	-0.059534673
28	0xbcbac0f9	-0.022797095
29	0x3d74f2dd	0.059801925
30	0x3c9cc448	0.019136563
31	0xbc3f9a0e	-0.011694444
32	0xbd07a1e3	-0.03311337
33	0xbd70f9ab	-0.058831852
34	0x3a2b1290	0.00065258984
35	0xbdd2f2c2	-0.10300209
36	0x3ac78297	0.0015221414
37	0x3ca50d32	0.020147894
38	0x3d4ebc94	0.05047281
39	0xbd7c2308	-0.061556846
40	0xbda7a946	-0.08186583
41	0x3c5c983f	0.013464033
42	0xbd5c38e4	-0.053765193
43	0x3e3e4378	0.18580425
44	0x3e1febbf	0.15617274
45	0xbb81c3b1	-0.003960096
46	0x3e038c11	0.128464
47	0x3db36c53	0.087608956
48	0x3e206664	0.15664059
49	0xbb0b2e84	-0.0021237442
50	0xbd62e0eb	-0.05539028
51	0xbd347c9c	-0.04406415
52	0x3d223b5f	0.039607402
53	0xbd076841	-0.03305841
54	0x3b811ed2	0.0039404416
55	0xbd4878e3	-0.04894341
56	0xbca835d7	-0.020533485
57	0x3e4de618	0.20107305
58	0x3d70a0d2	0.05874712
59	0xbd9c4fa1	-0.076323755
60	0xbc9f22d3	-0.019425785
61	0x3c95ed4d	0.01830163
62	0x3e4373c2	0.19087127
63	0xbe263724	-0.16231972
64	0xbb8aa22c	-0.004230758
65	0x3c145543	0.009053531
66	0xbcda759c	-0.026667409
67	0xbc459e43	-0.012061658
68	0x3c84c77f	0.016208408
69	0x3c5b77d7	0.013395271
70	0x3df5c918	0.12001246
71	0xbd2fee65	-0.04295196
72	0x3cda681a	0.026660968
73	0xbd2ae914	-0.041726187
74	0xbdd7b657	-0.105328254
75	0xbe0ca93c	-0.13736433
76	0x3daf309e	0.08554195
77	0xbbd7b727	-0.0065831128
78	0xbd021b25	-0.03176417
79	0x3d76fe82	0.06030131
80	0xbb5f8624	-0.0034107054
81	0xbd82d855	-0.06388918
82	0xbdba4259	-0.09094686
83	0xbc03649d	-0.008019594
84	0x3cfc40f1	0.030792685
85	0xbd3ce434	-0.04611607
86	0xbd971c84	-0.07378486
87	0xbd19d8ba	-0.037560202
88	0x3de6f134	0.112764746
89	0xbd54ff76	-0.05200144
90	0xbd6d023e	-0.057863466
91	0x3cfa485e	0.030552085
92	0x3c0e1e30	0.008674189
93	0x398b9c91	0.00026628797
94	0x3d2b844a	0.041874208
95	0x3d7013ea	0.05861274
96	0x3dadaf5b	0.08480712
97	0x3d4b2155	0.049592335
98	0xbc1ac70d	-0.0094468715
99	0x3d5057e7	0.05086508
100	0xbd1a053a	-0.03760264
101	0xbd46dce5	-0.048550505
102	0x3c281947	0.010259933
103	0xbe2254ab	-0.15852611
104	0x3d7e2283	0.06204463
105	0x3d46a7eb	0.048499983
106	0xbbc6ddd4	-0.0060689244
107	0xbc392dc9	-0.01130242
108	0x3d255a90	0.04036957
109	0x3d927642	0.07151462
110	0x3bcb96f9	0.0062130657
111	0xbcde22d5	-0.027116219
112	0xbda35577	-0.079752855
113	0xbdae4a74	-0.085102946
114	0xbd929b56	-0.07158534
115	0xbcb422dc	-0.021989278
116	0x3cfbc175	0.030731896
117	0xbdd38ccd	-0.1032959
118	0xbd90b74b	-0.0706621
119	0xbcd42a35	-0.025899032
120	0x3d9da4a3	0.076974176
121	0x3beec274	0.007286364
122	0xbbf9b21b	-0.007620109
123	0xbd9f7ce9	-0.077874966
124	0xbcb668bb	-0.022266736
125	0x3caacd8f	0.020849971
126	0xbcd6bc2e	-0.026212778
127	0xbc8eddeb	-0.017439803
128	0xb9d75ec9	-0.00041078616
129	0xbdcfff9a	-0.10156174
130	0xbd2d2591	-0.042272154
131	0xbe09e778	-0.13467205
132	0x3aa9f262	0.0012965912
133	0xbdfd566d	-0.1237
134	0x3d1e30d0	0.03862077
135	0xbdc6ae69	-0.09701235
136	0xbd472b4c	-0.048625275
137	0xbdb26e37	-0.08712428
138	0xbd1cb04f	-0.03825408
139	0xbe30bd34	-0.17259675
140	0x3d1f8106	0.038941406
141	0xbc927136	-0.017876249
142	0x3d3d0ea3	0.046156537
143	0xbd68dd51	-0.05685169
144	0xba89d560	-0.0010515861
145	0xbb3d7e3f	-0.002891436
146	0x3dcce696	0.10004918
147	0x3d0d8b35	0.034556586
148	0xbdce22f1	-0.10065258
149	0x3de1a2c6	0.11017375
150	0xbdb28874	-0.087174326
151	0x3cbefa32	0.023312662
152	0xbaf56f45	-0.0018725178
153	0x3dd74224	0.10510662
154	0xbd79f9dd	-0.061029304
155	0xbd3fccc0	-0.046826124
156	0x3cb35b5b	0.021894148
157	0xbc0b21ba	-0.008491928
158	0xbc3bd06c	-0.011463266
159	0xbd8c2650	-0.06843245
160	0xbd1ecf5d	-0.038771976
161	0x3df20a3d	0.11818359
162	0xbdd78fb5	-0.10525457
163	0x399bb083	0.00029695415
164	0xbc3dab24	-0.011576448
165	0x3d06188f	0.032738265
166	0x3c9281e3	0.0178842
167	0xbdb5278e	-0.08845435
168	0x3ca48007	0.02008058
169	0x3e049046	0.12945661
170	0xbd75bec2	-0.059996374
171	0xbd41221d	-0.047151674
172	0x3d3e39d6	0.046441875
173	0x3de00145	0.10937742
174	0xbbc720a6	-0.00607689
175	0xbdf115e7	-0.11771756
176	0xbd24a720	-0.040198445
177	0x3db5f1fb	0.08884045
178	0x3e356185	0.17712982
179	0x3c5ac4c8	0.01335258
180	0xbc91cc23	-0.017797535
181	0x3d66a31f	0.05630791
182	0x3e0ad10c	0.13556308
183	0xbc9da8e5	-0.019245574
184	0x3e1793f5	0.14802535
185	0xbbca939d	-0.0061821477
186	0x3e76b2e2	0.24091676
187	0xbd85529c	-0.06509897
188	0x3dade6f3	0.08491316
189	0x3cbbc278	0.022919878
190	0x3d405a07	0.046960857
191	0xbd6d193f	-0.057885405
192	0xbdaaaadd	-0.08333371
193	0x3ca5a157	0.020218534
194	0x3d2e1a03	0.042505275
195	0xbbc62773	-0.006047183
196	0xbd100844	-0.035164133
197	0xbbc8a427	-0.006123084
198	0x3c2d89cf	0.010591938
199	0x3c830e67	0.015998079
200	0xbda0796b	-0.07835659
201	0x3c564f10	0.013080373
202	0xbdcfff45	-0.10156111
203	0xbd4cc33c	-0.049990878
204	0xbd513c23	-0.05108274
205	0xbdc4d7d0	-0.096114755
206	0xba8bb5a4	-0.0010658992
207	0x3cc07010	0.023490936
208	0xbdaef88a	-0.08543499
209	0x3da34b57	0.07973354
210	0x3d173958	0.03691992
211	0x3d756a28	0.05991569
212	0xbc84ecd1	-0.016226204
213	0x3d582911	0.05277354
214	0x3d0412b2	0.03224439
215	0x3d9796e7	0.07401829
216	0x3ce8346c	0.02834531
217	0xbc967171	-0.01836464
218	0xbd36b40c	-0.0446053
219	0xbdad8792	-0.084731236
220	0x3da33cac	0.079705566
221	0xbd935099	-0.07193107
222	0xbcd18e14	-0.025580443
223	0x3be64812	0.0070276344
224	0xbc91f2e3	-0.017816013
225	0xbcc60e73	-0.024176812
226	0xbcad2e86	-0.021140348
227	0x3d84f3d9	0.06491823
228	0x3c049797	0.008092782
229	0xbda09ad4	-0.07842031
230	0xbd69129a	-0.056902505
231	0xbc7fd2e0	-0.015614241
232	0xbe09e903	-0.13467793
233	0xbd4b2ed9	-0.049605224
234	0xbe1527e3	-0.14565997
235	0x3bf5ca5b	0.0075009293
236	0x3cf0b415	0.029382745
237	0xbda54e79	-0.08071608
238	0xbe11a1cb	-0.14221875
239	0xbd8226ca	-0.06355055
240	0x3c7e2b10	0.015513197
241	0xbba33d67	-0.004981685
242	0xbce60f75	-0.028083542
243	0xbdeeacfe	-0.116540894
244	0xbd887698	-0.06663245
245	0xbdff768f	-0.12473785
246	0xbcfc956c	-0.030832969
247	0x3cb6c347	0.022309912
248	0xbcb24606	-0.021761905
249	0x3d11c66f	0.03558963
250	0xbc6fd949	-0.014639207
251	0x3e433bc4	0.19065768
252	0xbd42f0f1	-0.04759306
253	0x3ca0bb1b	0.019620469
254	0x3b93eca2	0.004514293
255	0xbe01dbf3	-0.1268156

fc2_bias f4 [84]
0	0x3e5641cf	0.20923541
1	0x3d3c67bb	0.045997363
2	0x3db96d8b	0.09054097
3	0x3e0f8f82	0.14019588
4	0x3e909955	0.28241983
5	0x3e986353	0.29763278
6	0x3a1b945a	0.0005934887
7	0x3d4de288	0.050264865
8	0x3f3d894a	0.7403761
9	0x3d3b5973	0.045739602
10	0xbe2f02c8	-0.17090905
11	0xb70fa2e4	-8.56139e-06
12	0xbc1facec	-0.009745818
13	0x3e85de55	0.26146188
14	0x3df60166	0.120119855
15	0x3f193fbc	0.59862876
16	0x3ef667b9	0.4812601
17	0x3de5b7a6	0.11216669
18	0x3ed48313	0.41506252
19	0x3cdfef72	0.027335856
20	0x3e45d5d3	0.19319849
21	0x3e6d6933	0.23184662
22	0x3e0ce493	0.13759069
23	0x3d9300e1	0.07177902
24	0x3cb45625	0.022013733
25	0x3ddcdff7	0.107849054
26	0x3f74c962	0.95619786
27	0x3c7bf50e	0.01537825
28	0x3ecd2808	0.40069604
29	0x3ec5fde1	0.38670257
30	0x3ec8c768	0.39214635
31	0x3da66809	0.08125312
32	0x3e825e9b	0.25462803
33	0xbc1fe6af	-0.009759589
34	0x3e5384ce	0.2065613
35	0x3cfebb6b	0.031095227
36	0x3cc19b78	0.023633704
37	0x3e696049	0.22790636
38	0x3eb6c72e	0.35698837
39	0x3d9d1370	0.07669723
40	0x3e340792	0.17581013
41	0x3ef82db6	0.48472375
42	0x3ddcd878	0.10783476
43	0x3deb7b1b	0.1149809
44	0x3ec233c6	0.37930125
45	0x3e0e6026	0.13903865
46	0x3e1a410c	0.15063876
47	0x3d97cf61	0.07412601
48	0x3ea55c67	0.3229706
49	0x3edd20ef	0.4318919
50	0x3e3c4b06	0.18387994
51	0x3e3d4099	0.18481673
52	0x3e8ed041	0.2789326
53	0x3eb22faa	0.3480199
54	0x3de578f1	0.11204708
55	0xbdcffbf7	-0.1015548
56	0x3c0c7ca9	0.008574643
57	0xbe322ca9	-0.17399849
58	0x3d9e99bb	0.077441655
59	0x3f41de0f	0.7572946
60	0xbd9cf658	-0.07664174
61	0x3e447021	0.19183399
62	0x3f364d29	0.7121149
63	0x3c39c029	0.011337318
64	0x3f40850c	0.75203013
65	0x3ecbdeec	0.39818513
66	0x3d02c3dd	0.03192507
67	0x3de8bb6d	0.11363874
68	0x3e385b59	0.18003596
69	0x3e34784b	0.17624013
70	0x3e0c64fe	0.137104
71	0x3e0b7ffa	0.13623038
72	0x3f000576	0.5000833
73	0x3dd48642	0.1037717
74	0xbe300bac	-0.17191952
75	0x3a2cfe3a	0.0006599162
76	0x3f01e8b3	0.50745696
77	0x3e196f05	0.14983757
78	0x3e477ec8	0.19481957
79	0x3df36918	0.118852794
80	0x3e953a52	0.29146057
81	0x3e75ef58	0.24017084
82	0x3e403586	0.18770418
83	0x3e09a892	0.1344321

fc3_weight f4 [10, 84]
0	0xbe25da56	-0.1619657
1	0x3c840890	0.016117364
2	0x3eaf6140	0.34253883
3	0x3d932f4d	0.07186756
4	0xbdaf19e6	-0.085498616
5	0xbd9e6394	-0.07733837
6	0x3c8136b9	0.015773164
7	0xbd027fcb	-0.031860154
8	0xbee60a4c	-0.4492973
9	0x3ca6ba14	0.0203524
10	0x3d68b74a	0.056815423
11	0x3634ecde	2.6959965e-06
12	0x3e14bfd0	0.14526296
13	0x3d94bf3e	0.07263039
14	0xbe59fee2	-0.21288636
15	0x3cead952	0.02866808
16	0xbe150c70	-0.14555526
17	0xbe238800	-0.15969849
18	0xbe82724a	-0.2547782
19	0x3e7c7077	0.24652277
20	0x3cd614c8	0.026132956
21	0x3dbdc0a4	0.09265259
22	0x3e805e3e	0.250719
23	0xbd22e00a	-0.03976444
24	0x3cbd04d0	0.023073584
25	0x3e7d4c55	0.2473615
26	0xbd8283ea	-0.06372817
27	0xbe3504ff	-0.17677687
28	0xbe2bed1e	-0.16789672
29	0xbe470c1f	-0.19438218
30	0xbe01a078	-0.1265887
31	0xbe6cb624	-0.23116356
32	0xbe65d375	-0.22443946
33	0x3e089d19	0.13341178
34	0xbe369f5d	-0.1783423
35	0x3cb0bbb0	0.021573871
36	0x3eb72b54	0.35775244
37	0x3dc062e6	0.093938634
38	0xbe5fd2d7	-0.21857773
39	0xbd814f2e	-0.063139305
40	0x3a85d5f9	0.0010210864
41	0x3e8f25ff	0.27958676
42	0x3daf7c7f	0.085686676
43	0xbd7ce217	-0.061739054
44	0x3e317cc1	0.17332746
45	0xbe34f2c1	-0.17670728
46	0xbdd9e154	-0.10638681
47	0x3ea38a4c	0.3194145
48	0x3e5629b3	0.20914344
49	0xbcc841c5	-0.024445424
50	0xbd630e0c	-0.055433318
51	0x3dc156fd	0.0944042
52	0x3d6995af	0.057027515
53	0xbe4e7eb2	-0.20165518
54	0xbc204ab6	-0.0097834375
55	0xbe351a3a	-0.17685786
56	0xbdbdb1ea	-0.0926245
57	0x3e68c753	0.22732286
58	0x3eaa0bec	0.3321222
59	0xbe3a2434	-0.18177873
60	0x3e322e6e	0.17400524
61	0x3d5cb10a	0.053879775
62	0xbe3990e2	-0.18121675
63	0xba994cab	-0.0011695822
64	0xbd9e75ae	-0.07737289
65	0xbd9c8341	-0.07642222
66	0xbd211033	-0.03932209
67	0x3da9c06b	0.08288654
68	0xbdf657de	-0.12028478
69	0xbdc1d457	-0.09464329
70	0x3e8291f3	0.25501975
71	0x3e2bddfc	0.16783899
72	0x3e75c2c7	0.24000083
73	0xbdf9a50d	-0.12189684
74	0x3cbb55db	0.022868088
75	0x3a81cb30	0.0009902474
76	0xbe426bfd	-0.18986507
77	0xbd874807	-0.06605535
78	0xbc85187e	-0.01624703
79	0xbd812fdf	-0.06307959
80	0xbe323d6c	-0.17406243
81	0x3e3f1d4d	0.18663521
82	0x3d87d305	0.06632046
83	0x3e53937f	0.20661734
84	0x3e3bc89c	0.18338245
85	0x3e57deee	0.21081135
86	0xbd0f6d5c	-0.035016403
87	0xbb9bdd7a	-0.0047566267
88	0xbea3fba4	-0.32027924
89	0x3dc2aa69	0.095051594
90	0x3b12155d	0.0022290566
91	0xbd3f0be7	-0.04664221
92	0xbe1526a3	-0.1456552
93	0x3e93cd7d	0.28867713
94	0x3f0a63bd	0.5405844
95	0x37e3cf39	2.7157004e-05
96	0x3dd0890c	0.101823896
97	0xbdfcf8e4	-0.123521596
98	0x3df612e1	0.120153196
99	0xbea5ab6e	-0.32357353
100	0x3d71f099	0.059067342
101	0x3eac3712	0.33635765
102	0xbe800ddf	-0.25010583
103	0xbde6316a	-0.11239894
104	0x3cb2d4e5	0.021830032
105	0xbde783dc	-0.11304447
106	0x3e6d2c13	0.23161344
107	0x3e75faf5	0.24021514
108	0x3be76872	0.0070620114
109	0x3d67a95d	0.056558
110	0xbebaf3e4	-0.365142
111	0xbcb97822	-0.022640292
112	0x3d8c2c36	0.0684437
113	0xbd3885b4	-0.045049384
114	0x3e138222	0.1440511
115	0x3e15b228	0.14618742
116	0x3dac2279	0.08405013
117	0x3e63bc04	0.22239691
118	0xbe031565	-0.1280113
119	0xbe18ef2c	-0.14934987
120	0x3d93d376	0.07218067
121	0xbdd3b458	-0.10337132
122	0xbdc60b2b	-0.09670099
123	0xbdc4a0fb	-0.09601017
124	0x3e822f75	0.25426832
125	0xbe0c4fe3	-0.1370235
126	0x3e8f25f5	0.27958646
127	0xbdbdc748	-0.092665255
128	0xbd84f4f8	-0.064920366
129	0x3b8dc08b	0.0043259314
130	0x3e2d7bb3	0.16941719
131	0xbe6a8a17	-0.2290424
132	0x3e27b87f	0.16378973
133	0x3e689ea3	0.22716765
134	0x3e9c146a	0.30484325
135	0x3e570318	0.20997274
136	0xbdae02e8	-0.08496648
137	0xbd93a13e	-0.07208489
138	0xbe2bbeb8	-0.16771972
139	0x3ef49828	0.47772336
140	0x3ea63b56	0.32467145
141	0xbdb78b99	-0.08962173
142	0xbb007032	-0.0019598124
143	0xbe5b1995	-0.21396478
144	0xbdb27011	-0.08712781
145	0xbd6ba5be	-0.05753111
146	0xbe33a343	-0.17542748
147	0xbc4e3ff3	-0.012588489
148	0xbe3106aa	-0.17287698
149	0xbe1a07c4	-0.15042025
150	0xbd4edf1f	-0.050505754
151	0xbe31e481	-0.17372324
152	0xbdbca504	-0.09211162
153	0xbdbca007	-0.0921021
154	0xbd088ec9	-0.033339296
155	0x3df757c1	0.120772846
156	0xbe5f75a8	-0.21822226
157	0x3ee16062	0.44018847
158	0x3e784823	0.24246268
159	0x3a8b2f5e	0.0010618975
160	0xbd53fd88	-0.051755458
161	0xbddccc14	-0.10781112
162	0x3ca3632e	0.019944753
163	0xbe07032c	-0.13184804
164	0xbccabd9c	-0.024748616
165	0xbe836def	-0.2566981
166	0xbd2f6741	-0.04282308
167	0xbe6f4fc9	-0.2337028
168	0xbe55438e	-0.20826551
169	0x3eb9270b	0.361626
170	0xbe3a6c50	-0.1820538
171	0x3eb20b26	0.3477413
172	0x3e841f8c	0.25805318
173	0x3e93488a	0.2876628
174	0x3c176016	0.009239217
175	0xbe5955bc	-0.21224111
176	0x3e4caaa0	0.19986963
177	0xbe6cc22d	-0.23120947
178	0xbd88f61d	-0.066875674
179	0xb78d2981	-1.6827837e-05
180	0x3c905a42	0.017621163
181	0x3d6bfa4c	0.05761175
182	0x3d64eaa0	0.05588782
183	0x3dac9eef	0.08428752
184	0xbb3d531d	-0.002888865
185	0xbdcb7fab	-0.0993646
186	0x3ebc2cf5	0.3675305
187	0x3eb8165f	0.35954568
188	0xbd100c25	-0.035167832
189	0xbdb118e3	-0.08647325
190	0xbd11f318	-0.035632223
191	0x3e125565	0.14290388
192	0xbc41c6f6	-0.011827221
193	0xbdf9cfcd	-0.12197838
194	0x3e26de14	0.16295654
195	0x3ecd0746	0.40044612
196	0xbd544d48	-0.051831514
197	0x3c9de580	0.019274473
198	0x3c8a1b1e	0.016858634
199	0x3ea49982	0.32148367
200	0xbd355c2e	-0.044277363
201	0x3e1a5643	0.15071969
202	0xbe29b2d3	-0.16572122
203	0x3e845c21	0.2585154
204	0xbdfa5edd	-0.12225125
205	0xbe466683	-0.19375043
206	0xbe061831	-0.13095166
207	0xbe0f2c85	-0.13981827
208	0x3e8b7506	0.2723772
209	0x3c84371e	0.016139563
210	0xbe171259	-0.14753093
211	0xbe933c28	-0.28756833
212	0x3c19d0cf	0.009388163
213	0x3dd5590a	0.104173735
214	0xbe041e82	-0.12902263
215	0x3e830aa6	0.25594062
216	0xbe64d02e	-0.22345039
217	0xbe1d9bed	-0.15391512
218	0xbe47fdb3	-0.19530372
219	0xbcec1e68	-0.028823093
220	0xbc0faf8a	-0.008769879
221	0xbd9d305a	-0.07675238
222	0xbd7aed95	-0.061261732
223	0xbd9a1546	-0.07523589
224	0xbd48b400	-0.048999786
225	0x3dd34807	0.103164725
226	0xbda4cb8e	-0.080466375
227	0x3e74fc46	0.2392436
228	0x3de88947	0.113543086
229	0x3eaae238	0.33375716
230	0x3db37d66	0.08764152
231	0xbc15f13d	-0.009151754
232	0xbdfa476d	-0.12220655
233	0xbe028da5	-0.12749346
234	0xbc30fe9e	-0.010802893
235	0x3d72a53f	0.059239622
236	0xbe99f805	-0.30072036
237	0x3ddcdc58	0.10784215
238	0x3e2c78a9	0.16842903
239	0x3e4cf3a9	0.20014824
240	0xbda74a86	-0.08168511
241	0xbde2f0b6	-0.11081068
242	0x3e8bedec	0.27329957
243	0x39369d70	0.00017415523
244	0xbe863f40	-0.2622013
245	0xbbb36903	-0.005475165
246	0xbd736bd4	-0.059429005
247	0xbd0c17cd	-0.034202386
248	0xbe34c318	-0.17652547
249	0x3e3b9496	0.183184
250	0xbdd3f507	-0.1034947
251	0x3d21b30c	0.039477393
252	0x3e025b54	0.12730151
253	0x3c1b6f22	0.009486945
254	0x3e488425	0.19581659
255	0x3dfa6094	0.12225452

fc3_bias f4 [10]
0	0xbe59c8ac	-0.21267956
1	0xbf331aa3	-0.6996252
2	0xbb6a4d0e	-0.0035751495
3	0x3f07582e	0.52868927
4	0x3f12c3f6	0.5733026
5	0x3d249022	0.04017652
6	0xbe0e1b7e	-0.13877675
7	0xbe2ac465	-0.16676481
8	0x3aab48eb	0.0013067996
9	0x3d9fb967	0.077990346
